# YOLO-Master 🚀 AGPL-3.0 License - https://ultralytics.com/license

# Parameters
nc: 80 # number of classes
scales: # model compound scaling constants
  n: [0.50, 0.25, 1024] # summary: 439 layers, 7,546,984 parameters, 7,546,968 gradients, 9.9 GFLOPs


backbone:
  - [-1, 1, Conv, [64, 3, 2]]
  - [-1, 1, Conv, [128, 3, 2]]
  - [-1, 2, C3k2, [256, False, 0.25]] 

  - [-1, 1, Conv, [256, 3, 2]]
  - [-1, 2, C3k2, [512, False, 0.25]] 
  
  - [-1, 1, ModularRouterExpertMoE, [512, 4, 2]] 

  - [-1, 1, Conv, [512, 3, 2]]
  - [-1, 4, A2C2f, [512, True, 4]]
  
  - [-1, 1, ModularRouterExpertMoE, [512, 8, 2]] 

  - [-1, 1, Conv, [1024, 3, 2]]
  - [-1, 4, A2C2f, [1024, True, 1]]
  
  - [-1, 1, ModularRouterExpertMoE, [1024, 16, 2]] 

head:
  - [-1, 1, nn.Upsample, [None, 2, "nearest"]]
  - [[-1, 8], 1, Concat, [1]]
  - [-1, 2, C3k2, [512, True]]

  - [-1, 1, nn.Upsample, [None, 2, "nearest"]]
  - [[-1, 5], 1, Concat, [1]]
  - [-1, 2, C3k2, [256, True]]

  - [-1, 1, Conv, [256, 3, 2]]
  - [[-1, 14], 1, Concat, [1]]
  - [-1, 2, C3k2, [512, True]]

  - [-1, 1, Conv, [512, 3, 2]]
  - [[-1, 11], 1, Concat, [1]]
  - [-1, 2, C3k2, [512, True]]

  - [[17, 20, 23], 1, Detect, [nc]]