…
ue, single_cls=False, slice_size=640, source=None, sparse_sahi=False, split=val, stream_buffer=False, task=detect, time=None, tracker=botsort.yaml, translate=0.1, val=True, verbose=True, vid_stride=1, visualize=False, warmup_bias_lr=0.1, warmup_epochs=3.0, warmup_momentum=0.8, weight_decay=0.0005, weighted=False, workers=4, workspace=None
Overriding model.yaml nc=80 with nc=119
WARNING ⚠️ no model scale passed. Assuming scale='n'.

                   from  n    params  module                                       arguments                     
  0                  -1  1       464  ultralytics.nn.modules.conv.Conv             [3, 16, 3, 2]                 
  1                  -1  1      4672  ultralytics.nn.modules.conv.Conv             [16, 32, 3, 2]                
  2                  -1  1      6640  ultralytics.nn.modules.block.C3k2            [32, 64, 1, False, 0.25]      
  3                  -1  1      7664  ultralytics.nn.modules.block.C3k2            [64, 64, 1, False, 0.25]      
  4                  -1  1     36992  ultralytics.nn.modules.conv.Conv             [64, 64, 3, 2]                
  5                  -1  1     26080  ultralytics.nn.modules.block.C3k2            [64, 128, 1, False, 0.25]     
  6                  -1  1    300392  ultralytics.nn.modules.moe.modules.OptimizedMOEImproved[128, 128, 4, 2]              
  7                  -1  1    147712  ultralytics.nn.modules.conv.Conv             [128, 128, 3, 2]              
  8                  -1  2    180864  ultralytics.nn.modules.block.A2C2f           [128, 128, 2, True, 4]        
  9                  -1  1    565680  ultralytics.nn.modules.moe.modules.OptimizedMOEImproved[128, 128, 8, 2]              
 10                  -1  1    295424  ultralytics.nn.modules.conv.Conv             [128, 256, 3, 2]              
 11                  -1  2    689408  ultralytics.nn.modules.block.A2C2f           [256, 256, 2, True, 1]        
 12                  -1  1   4359264  ultralytics.nn.modules.moe.modules.OptimizedMOEImproved[256, 256, 16, 2]             
 13                  -1  1         0  torch.nn.modules.upsampling.Upsample         [None, 2, 'nearest']          
 14             [-1, 9]  1         0  ultralytics.nn.modules.conv.Concat           [1]                           
 15                  -1  1    119808  ultralytics.nn.modules.block.C3k2            [384, 128, 1, True]           
 16                  -1  1         0  torch.nn.modules.upsampling.Upsample         [None, 2, 'nearest']          
 17             [-1, 6]  1         0  ultralytics.nn.modules.conv.Concat           [1]                           
 18                  -1  1     34304  ultralytics.nn.modules.block.C3k2            [256, 64, 1, True]            
 19                  -1  1     36992  ultralytics.nn.modules.conv.Conv             [64, 64, 3, 2]                
 20            [-1, 15]  1         0  ultralytics.nn.modules.conv.Concat           [1]                           
 21                  -1  1     95232  ultralytics.nn.modules.block.C3k2            [192, 128, 1, True]           
 22                  -1  1    147712  ultralytics.nn.modules.conv.Conv             [128, 128, 3, 2]              
 23            [-1, 12]  1         0  ultralytics.nn.modules.conv.Concat           [1]                           
 24                  -1  1    119808  ultralytics.nn.modules.block.C3k2            [384, 128, 1, True]           
 25        [18, 21, 24]  1    414253  ultralytics.nn.modules.head.Detect           [119, [64, 128, 128]]         
YOLO-master-n-v2 summary: 450 layers, 7,589,365 parameters, 7,589,349 gradients, 10.5 GFLOPs

Transferred 1054/1111 items from pretrained weights
[34m[1mtrain: [0mFast image access ✅ (ping: 0.7±0.1 ms, read: 68.3±20.8 MB/s, size: 174.2 KB)
[K[34m[1mtrain: [0mScanning /mnt/d/dl/keyan/tiaozhanbei/yolo_master_edge/dataset/labels/train.cache... 2660 images, 0 backgrounds, 0 corrupt: 100% ━━━━━━━━━━━━ 2660/2660 384.7Mit/s 0.0s[K[34m[1mtrain: [0mScanning /mnt/d/dl/keyan/tiaozhanbei/yolo_master_edge/dataset/labels/train.cache... 2660 images, 0 backgrounds, 0 corrupt: 100% ━━━━━━━━━━━━ 2660/2660 38.7Mit/s 0.0s
…
