# YOLO-Master 🚀 AGPL-3.0 License - https://ultralytics.com/license

# Parameters
nc: 80 # number of classes
scales: # model compound scaling constants
  # [depth, width, max_channels]
  m: [0.50, 1.00, 512] # summary: 364 layers, 23,911,564 parameters, 23,911,548 gradients, 98.0 GFLOPs

backbone:
  # [from, repeats, module, args]
  - [-1, 1, Conv, [64, 3, 2]] # 0-P1/2
  - [-1, 1, Conv, [128, 3, 2]] # 1-P2/4
  - [-1, 2, C3k2, [256, False, 0.25]]
  - [-1, 1, ES_MOE, [256]]
  - [-1, 1, Conv, [256, 3, 2]] # 3-P3/8
  - [-1, 2, C3k2, [512, False, 0.25]]
  - [-1, 1, ES_MOE, [512]]
  - [-1, 1, Conv, [512, 3, 2]] # 5-P4/16
  - [-1, 4, A2C2f, [512, True, 4]]
  - [-1, 1, ES_MOE, [512]]
  - [-1, 1, Conv, [1024, 3, 2]] # 7-P5/32
  - [-1, 4, A2C2f, [1024, True, 1]] # 8
  - [-1, 1, ES_MOE, [1024]]

# YOLO11 head
head:
  - [-1, 1, nn.Upsample, [None, 2, "nearest"]]
  - [[-1, 9], 1, Concat, [1]] # cat backbone P4
  - [-1, 2, C3k2, [512, True]] # 11

  - [-1, 1, nn.Upsample, [None, 2, "nearest"]]
  - [[-1, 6], 1, Concat, [1]] # cat backbone P3
  - [-1, 2, C3k2, [256, True]] # 14

  - [-1, 1, Conv, [256, 3, 2]]
  - [[-1, 15], 1, Concat, [1]] # cat head P4
  - [-1, 2, C3k2, [512, True]] # 17

  - [-1, 1, Conv, [512, 3, 2]]
  - [[-1, 12], 1, Concat, [1]] # cat head P5
  - [-1, 2, C3k2, [512, True]] # 20 (P5/32-large)

  - [[18, 21, 24], 1, Detect, [nc]] # Detect(P3, P4, P5)